…
\n    for p in model.parameters()\n\n    if p.requires_grad\n\n)\n\nprint(\"=\" * 65)\n\nprint(f\"Total Parameters     : {total_params:,}\")\n\nprint(f\"Trainable Parameters : {trainable_params:,}\")\n\nprint(\"=\" * 65)","metadata":{"trusted":true,"execution":{"iopub.status.busy":"2026-07-11T04:51:02.529899Z","iopub.execute_input":"2026-07-11T04:51:02.530151Z","iopub.status.idle":"2026-07-11T04:51:02.557394Z","shell.execute_reply.started":"2026-07-11T04:51:02.530103Z","shell.execute_reply":"2026-07-11T04:51:02.556793Z"}},"outputs":[{"name":"stdout","text":"TransformerIDS(\n  (input_projection): Linear(in_features=43, out_features=128, bias=True)\n  (transformer): TransformerEncoder(\n    (layers): ModuleList(\n      (0-1): 2 x TransformerEncoderLayer(\n        (self_attn): MultiheadAttention(\n          (out_proj): NonDynamicallyQuantizableLinear(in_features=128, out_features=128, bias=True)\n        )\n        (linear1): Linear(in_features=128, out_features=256, bias=True)\n        (dropout): Dropout(p=0.2, inplace=False)\n        (linear2): Linear(in_features=256, out_features=128, bias=True)\n        (norm1): LayerNorm((128,), eps=1e-05, elementwise_affine=True)\n        (norm2): LayerNorm((128,), eps=1e-05, elementwise_affine=True)\n        (dropout1): Dropout(p=0.2, inplace=False)\n        (dropout2): Dropout(p=0.2, inplace=False)\n      )\n    )\n  )\n  (attention): Sequential(\n    (0): Linear(in_features=128, out_features=64, bias=True)\n    (1): Tanh()\n    (2): Linear(in_features=64, out_features=1, bias=True)\n  )\n  (classifier): Sequential(\n    (0): LayerNorm((128,), eps=1e-05, elementwise_affine=True)\n    (1): Linear(in_features=128, out_features=128, bias=True)\n    (2): GELU(approximate='none')\n    (3): Dropout(p=0.2, inplace=False)\n    (4): Linear(in_features=128, out_features=14, bias=True)\n  )\n)\n\n=================================================================\nTotal Parameters     : 297,487\nTrainable Parameters : 297,487\n=================================================================\n","output_type":"stream"}],"execution_count":32},{"cell_type":"code","source":"# ============================================================\n# C
…
